model.pt (torch, 816543 bytes, 4 tensors)

weight f4 [256, 784]
0	0xbc5958a6	-0.013265764
1	0xbd03cdf0	-0.03217882
2	0xbcd639c4	-0.026150592
3	0xbca528db	-0.020161083
4	0xbd02d75a	-0.031943657
5	0xba30623e	-0.00067285064
6	0xbbe4b395	-0.0069794157
7	0x3c998bef	0.018743483
8	0x3b6b50fc	0.0035906425
9	0xbce6751f	-0.02813202
10	0x3d0bee79	0.034162972
11	0xbc2b4ba6	-0.010455048
12	0x3d09a3a2	0.033603318
13	0xbd0af804	-0.033927932
14	0xbc1ac4e2	-0.009446355
15	0x3b4ceb8f	0.0031268334
16	0x3c84f459	0.016229795
17	0x3c7dbee2	0.015487405
18	0xbd0835b7	-0.03325435
19	0x3c82e991	0.015980514
20	0xbcee66af	-0.029101698
21	0xbc349938	-0.011022858
22	0xba95a303	-0.0011416379
23	0xbb8c92bb	-0.0042899526
24	0x3c137bec	0.009001713
25	0xbc41b462	-0.011822792
26	0xbcc14a11	-0.023594888
27	0x3c8291e1	0.015938701
28	0x3ca59fbd	0.02021777
29	0x3ca7890b	0.02045109
30	0x3b539240	0.0032283217
31	0x3c094dfc	0.008380409
32	0x3cf84162	0.030304614
33	0x3be8ad08	0.007100705
34	0x3b7d6a9c	0.003866828
35	0xbc009604	-0.0078482665
36	0x3d0177e7	0.03160849
37	0x3a1856ff	0.0005811303
38	0xbb783d73	-0.0037878423
39	0x3c93c0c9	0.018036263
40	0x3cc1fe18	0.023680732
41	0x3bb29ed9	0.005451065
42	0xbcf1fadb	-0.029538563
43	0x3d010fae	0.031509094
44	0x3cf5df59	0.030013727
45	0xba0419c3	-0.0005039239
46	0x3aff8df7	0.0019497265
47	0xbc866a55	-0.016408125
48	0x3d0299f1	0.03188509
49	0x3938dd02	0.00017629939
50	0xbc378192	-0.011200326
51	0x3b160ac0	0.002289459
52	0xbcdf4beb	-0.02725788
53	0xbbda2af9	-0.006657955
54	0x3c1098bc	0.008825477
55	0xbbc4cf01	-0.006006122
56	0x3cba9f91	0.022781165
57	0x3c64bccc	0.013961028
58	0xbc92f344	-0.017938264
59	0xbc76d05a	-0.015064323
60	0xbce3bb67	-0.027799321
61	0xbbec389e	-0.0072088977
62	0x3c0b21c3	0.008491936
63	0xbcf7b1f4	-0.030236222
64	0xbc01e214	-0.007927436
65	0xbbf82a18	-0.0075733773
66	0xbcac9bf8	-0.021070465
67	0x3bf7de27	0.0075643244
68	0xbc96e1da	-0.018418241
69	0x39c614ed	0.00037781094
70	0x3c765e16	0.01503708
71	0x3bec9001	0.007219315
72	0x3d0b3c9a	0.03399334
73	0xbc5041a6	-0.012710964
74	0x3ce78d74	0.028265692
75	0xbc94c02f	-0.018158047
76	0x3c06fa1d	0.008238343
77	0x3c461bff	0.012091636
78	0x3c1a6f6d	0.00942598
79	0x3d01cb36	0.031687938
80	0x3c713d6f	0.01472412
81	0xbbec9fd4	-0.0072212014
82	0xbc9129ef	-0.01772019
83	0xbcfa6409	-0.030565279
84	0x3c8aa239	0.016923057
85	0xbc3d81aa	-0.011566559
86	0x3ae3a149	0.0017366792
87	0x3cfff323	0.031243866
88	0xbc8f0cae	-0.0174621
89	0xbc690af2	-0.014223801
90	0xbc0c1be1	-0.008551569
91	0xbca3b566	-0.019983958
92	0x3c2563c2	0.010094585
93	0x3cbe64b5	0.02324138
94	0xbaa76e19	-0.00127739
95	0x3ca9cc47	0.02072729
96	0x3d163c2f	0.03667849
97	0x3c0f2d19	0.008738779
98	0xbcb77cb8	-0.022398338
99	0x3d287ab0	0.04113263
100	0x3d0d981c	0.03456889
101	0x3c8912d3	0.016732609
102	0x3d132a86	0.035929225
103	0x3d1525b0	0.036412895
104	0x3c2ee1f2	0.010673987
105	0xbc419262	-0.011814686
106	0x3bc7e987	0.0061008367
107	0x3c9857b2	0.018596504
108	0x3ce7ec2b	0.028310856
109	0xbc91908c	-0.01776912
110	0xbc0a0227	-0.008423365
111	0x3cbcd0e7	0.023048831
112	0x3aba781d	0.001422647
113	0x3cb25857	0.02177064
114	0x3caf1e46	0.02137674
115	0x3cfe32ca	0.031030077
116	0xbb81749d	-0.003950669
117	0xbc5b8075	-0.013397326
118	0x3cace5c9	0.021105664
119	0x3b8daf2d	0.004323861
120	0x3c77ee42	0.015132489
121	0x3ce5c19c	0.028046422
122	0x3d265f10	0.040618002
123	0x3cadfc10	0.021238357
124	0x3cf7ff3d	0.030273074
125	0x3cbc6b39	0.023000346
126	0xbc2ee375	-0.010674347
127	0x3cd5add1	0.026083859
128	0x3c08c4fa	0.008347744
129	0x3c5788a2	0.013155134
130	0x3cee88e6	0.029118013
131	0x3c3a804d	0.011383128
132	0xbcfb33d6	-0.030664366
133	0x3ccfbf00	0.02535963
134	0xbc9fdcac	-0.019514404
135	0x3cc6cf4c	0.024268769
136	0x3b6f2895	0.0036492695
137	0x3c4ba4ac	0.012429398
138	0x3ce6d074	0.02817557
139	0xbcba39f9	-0.022732722
140	0x3ca5c301	0.020234587
141	0x3ca83215	0.020531693
142	0x3cdacb42	0.026708249
143	0xbc9f94f2	-0.019480202
144	0x3c821a87	0.01588179
145	0xbca1add9	-0.019736217
146	0x3cbbaf02	0.022910599
147	0xbb8603b3	-0.0040897964
148	0x3d0cedc9	0.034406457
149	0xbcc53be4	-0.02407641
150	0x3cf048c6	0.029331576
151	0xbc23c03f	-0.0099945655
152	0x3cc54750	0.024081856
153	0x3d047055	0.03233369
154	0x3ce64dcf	0.028113274
155	0xb922ad0b	-0.00015513987
156	0x3cb4cf2c	0.022071443
157	0xbc881037	-0.016609294
158	0xbc3461a9	-0.011009612
159	0x3bafc51b	0.005364073
160	0xbcc5f16c	-0.02416297
161	0xbd086601	-0.033300404
162	0x3c52f9e5	0.012876962
163	0xbd2d104e	-0.042251877
164	0xbd1b8b57	-0.03797468
165	0xbbd8ca42	-0.006615908
166	0xbcd2ce4b	-0.025733134
167	0x3c031f0e	0.0080030095
168	0xbd00fc24	-0.03149046
169	0x3c3ee172	0.01165043
170	0xbcafa64f	-0.021441607
171	0xbbd405b0	-0.0064704046
172	0xbbb76fc7	-0.0055980417
173	0x3c420d11	0.011843936
174	0xbcc1d5f4	-0.023661591
175	0xbcde6cc0	-0.027151465
176	0x3c992944	0.018696435
177	0xbc002bbb	-0.007822926
178	0x3d22c090	0.039734423
179	0x3b2f4d13	0.002674882
180	0x3cacbc67	0.021085931
181	0xbc8e82ec	-0.017396413
182	0xbc42038b	-0.011841665
183	0x3d0d0822	0.034431584
184	0x3cca7f47	0.024718894
185	0xba77c024	-0.00094509334
186	0xbcb25389	-0.021768348
187	0xbc5ba3f0	-0.013405785
188	0xbb61079c	-0.003433681
189	0x3cc0cc3d	0.023534888
190	0xbbf4808c	-0.007461613
191	0xbb5677d5	-0.0032725234
192	0x3cd3263e	0.025775071
193	0xbaaf088a	-0.0013353985
194	0xbc7374ae	-0.014859362
195	0xbc32cf94	-0.010913748
196	0xbcee4f0f	-0.029090432
197	0xbc84cb89	-0.016210334
198	0xbcf3cb9c	-0.029760174
199	0xbca8bea1	-0.020598711
200	0xbce856be	-0.028361674
201	0xbc85616b	-0.016281804
202	0x3ca609da	0.02026837
203	0x3c3059c5	0.01076359
204	0xb90df72e	-0.0001353889
205	0x3c4a32f0	0.012341246
206	0xbbfb310e	-0.00766576
207	0xbc82f39a	-0.015985299
208	0xbce4624e	-0.027878907
209	0xbcaae46b	-0.020860871
210	0xbb8f3a09	-0.004370932
211	0x3c1c8d82	0.0095552225
212	0xbc9b57b5	-0.01896272
213	0xbcda9651	-0.026683005
214	0x3cec783e	0.02886593
215	0x3cacde99	0.021102237
216	0xbc555852	-0.0130215455
217	0xbb8b3744	-0.0042485315
218	0x3cc84551	0.024447115
219	0xbc0de026	-0.008659398
220	0x3c69f4da	0.014279569
221	0x3cba1b07	0.022717966
222	0x3bc5c359	0.00603525
223	0x3c835072	0.01602957
224	0xbd0bfbae	-0.034175567
225	0x3cd16509	0.025560873
226	0x3ca16555	0.01970164
227	0x3c66cb6b	0.014086585
228	0x3cc6762c	0.02422627
229	0x3d0a41d4	0.033754185
230	0x3cf292dc	0.029611044
231	0x3a4c305e	0.00077891897
232	0xbc88318c	-0.016625188
233	0x3cca3ebf	0.024688123
234	0x3c0d38f5	0.008619537
235	0xbbfac072	-0.007652336
236	0x3d02984f	0.031883534
237	0xbc997dda	-0.018736769
238	0xbb2623a3	-0.002535083
239	0x3ca5caaa	0.02023824
240	0x3c904326	0.017610144
241	0x3acaef59	0.0015482708
242	0x3cf12a99	0.029439257
243	0x3cfb8b48	0.030706063
244	0xbbad2a1d	-0.0052845613
245	0x3d0aa387	0.033847358
246	0x3d114a05	0.03547098
247	0xbd048125	-0.032349724
248	0x3ceb861a	0.028750468
249	0xbca4a891	-0.02009991
250	0x3c07360e	0.008252634
251	0xbcd6d6ba	-0.026225436
252	0xbca041b8	-0.019562587
253	0xbca095b0	-0.019602627
254	0xbadd4448	-0.0016881311
255	0xbcdff68c	-0.027339242

bias f4 [256]
0	0x3cf36081	0.029709103
1	0x3b0e6ffe	0.0021734233
2	0xbcd8205b	-0.026382616
3	0xbd0fc0e5	-0.035096068
4	0xbcafb86b	-0.021450242
5	0x3d1a08b9	0.037605975
6	0x3cd30e68	0.025763705
7	0xbb8b7a53	-0.0042565255
8	0x3c96f111	0.018425496
9	0x3bca0684	0.0061653275
10	0xbca3deb3	-0.020003652
11	0x3cd8eade	0.02647918
12	0xbaf5f130	-0.0018763896
13	0xba9de77c	-0.0012047137
14	0x3c7b4d44	0.015338246
15	0xbce9145b	-0.028452089
16	0x3cbd104b	0.023079058
17	0xbca69a0b	-0.020337125
18	0xbd24d97f	-0.040246483
19	0xbce431e3	-0.02785582
20	0xbafcc8ad	-0.001928588
21	0x3c8a0b2b	0.016851028
22	0xbc5dfa3f	-0.013548433
23	0xbcd4e7e0	-0.025989473
24	0x3cd47ab0	0.025937408
25	0xbaccfd8f	-0.0015639531
26	0xbcad482e	-0.021152582
27	0xbc641d6f	-0.013923033
28	0xbc7a87a6	-0.01529113
29	0xbc6d2585	-0.014474277
30	0xbc9fbe34	-0.019499876
31	0xbcd511e8	-0.026009515
32	0x3ccc662c	0.024951063
33	0x3d04b20e	0.03239637
34	0xbbdd20a4	-0.006748276
35	0x3cc74cac	0.024328552
36	0x3d0ba124	0.034089223
37	0xbd092433	-0.033481788
38	0xbc82fcc1	-0.015989663
39	0xbcf5f67e	-0.030024763
40	0xbca1eb94	-0.019765653
41	0x3cd5057d	0.026003594
42	0xbc23068d	-0.009950292
43	0xbd0e627f	-0.034761902
44	0xba073094	-0.000515708
45	0xbcde38fd	-0.027126784
46	0xbcca1a9c	-0.024670891
47	0xbd023b54	-0.03179486
48	0x3c014ca7	0.0078918105
49	0x3b260f24	0.0025338614
50	0x3d11891c	0.03553115
51	0xbc4915fe	-0.01227331
52	0xbcff6e23	-0.031180447
53	0xbcbd6590	-0.023119718
54	0xbd142287	-0.03616574
55	0x3c99f327	0.018792702
56	0xba1dd2fa	-0.00060205127
57	0xbc590258	-0.013245188
58	0xbcde476f	-0.027133672
59	0xbbfe62b4	-0.007763231
60	0xbbc26eac	-0.0059336033
61	0xbc6811a9	-0.014164367
62	0xbc91def0	-0.0178065
63	0xbc078329	-0.008271017
64	0xbcdd059f	-0.02698022
65	0x3d07478e	0.033027224
66	0x3d069192	0.03285367
67	0x3ba03d36	0.0048901094
68	0x3c81dcb5	0.015852312
69	0x3d151f99	0.036407087
70	0x3d0d4ede	0.03449904
71	0x3cb8ac81	0.022543194
72	0x3b8144b1	0.003944956
73	0x3b7beeed	0.0038441971
74	0x3c378d21	0.011203081
75	0xbb94dc59	-0.004542869
76	0x3c947b1f	0.018125115
77	0x3d080a52	0.033212967
78	0x3cb51e7e	0.022109266
79	0x3c3962b9	0.011315041
80	0x3ca71577	0.020395977
81	0x3c91a92e	0.017780866
82	0x3c7dc118	0.015487932
83	0xbcb4ae02	-0.02205563
84	0x3cf3075e	0.029666599
85	0xbc7cc5cb	-0.015428017
86	0xbc2db702	-0.0106027145
87	0xbb2a5350	-0.00259896
88	0x3c07b214	0.008282203
89	0x3c23ab46	0.009989565
90	0x3c593180	0.013256431
91	0x3b4c05e2	0.0031131436
92	0xba8c533b	-0.0010705957
93	0x3c1f50c8	0.00972385
94	0x3cce32e8	0.025170758
95	0x3bb2b533	0.0054537295
96	0x3c930cd6	0.017950457
97	0x3c957843	0.018245822
98	0xbcd5536b	-0.026040753
99	0x3ca14e6f	0.01969072
100	0xbc3da828	-0.011575736
101	0x3cc40897	0.023929877
102	0x3c961063	0.01831836
103	0x3af67fca	0.0018806395
104	0xbbbfd251	-0.005853929
105	0x3cb3393a	0.021877874
106	0x3c978d86	0.0185001
107	0x3bbcba0a	0.0057594823
108	0x3c075d2c	0.00826196
109	0xbca77ef7	-0.020446284
110	0x3d082194	0.033235148
111	0x3ce83bf3	0.028348899
112	0x3cf71dd0	0.030165583
113	0xbcb02065	-0.021499822
114	0x3c91331a	0.017724562
115	0xbba9ca8d	-0.0051816166
116	0xbcdafb9f	-0.02673131
117	0x3cad755a	0.021174122
118	0x3c1c8ee8	0.009555556
119	0xbd011db6	-0.031522475
120	0x3c9201ac	0.017823063
121	0x3c351b0a	0.01105381
122	0x3c1b9495	0.009495874
123	0x3c442327	0.011971272
124	0x3ce57a21	0.028012337
125	0x3c8ba086	0.017044317
126	0x3bc89cb0	0.006122194
127	0xbb64efff	-0.0034933088
128	0x3c94ccde	0.018164095
129	0x3d1400ae	0.03613346
130	0xbce2320f	-0.02761176
131	0xbc128604	-0.008943085
132	0xbbe0bad3	-0.0068582087
133	0x3bc41ea3	0.0059850975
134	0x3d0c65c4	0.03427674
135	0xbc7816e3	-0.015142175
136	0x3a6b720f	0.00089815346
137	0xbc0344f2	-0.008012043
138	0x3cb71703	0.02234984
139	0x3bc3a53f	0.0059706266
140	0x3ce54eb4	0.02799163
141	0x3ba96e65	0.0051706308
142	0xbce2beb0	-0.027678818
143	0x3d120915	0.035653193
144	0x3c8875fd	0.016657824
145	0x3cc31a97	0.02381639
146	0xbce259b2	-0.02763066
147	0xbba768cd	-0.005108929
148	0x3cf079d4	0.029354967
149	0xbc307504	-0.010770086
150	0xbcaccbdc	-0.021093301
151	0xbc7791a1	-0.015110404
152	0xbcfefa6b	-0.031125268
153	0x3c1a98ff	0.009435891
154	0xbd03aa83	-0.032145035
155	0xbc5653a3	-0.013081464
156	0x3b8a1c5a	0.0042148056
157	0xbcdaaa24	-0.026692457
158	0x3d1181b5	0.03552409
159	0xbbaa1746	-0.0051907627
160	0x3cb3a50f	0.021929292
161	0xbd0a07ca	-0.033698834
162	0xbb89e38c	-0.004208034
163	0xbd104bf7	-0.035228696
164	0xbc56bda1	-0.0131067345
165	0x3caed15e	0.021340068
166	0xbd0878af	-0.033318218
167	0xbcc49a3b	-0.023999324
168	0xbd105b1e	-0.035243146
169	0x3cb605be	0.022219535
170	0xbc8c9fbd	-0.017166013
171	0x3d0f8662	0.035040267
172	0xbd1bd41c	-0.03804408
173	0x3ce4b042	0.027916078
174	0xbbaf3288	-0.0053466
175	0xbc437f5e	-0.011932222
176	0x3d11aa7b	0.035562973
177	0x3c6cabf3	0.014445293
178	0xbd048fe0	-0.032363772
179	0x3cea7b46	0.028623234
180	0xbc169acb	-0.009192179
181	0x3c93f1b5	0.01805959
182	0x3b47c91d	0.0030484863
183	0x3b5243c0	0.003208384
184	0x3d272c0e	0.0408135
185	0xbc9911ff	-0.018685339
186	0xbc9b2966	-0.018940639
187	0x3c8b45fc	0.017001145
188	0xbd03bc8c	-0.032162234
189	0xbbcfbb57	-0.0063394713
190	0x3ce1fb71	0.027585717
191	0x3b54b8a4	0.0032458687
192	0x3cf26a19	0.029591607
193	0xbc2f978d	-0.010717285
194	0xbca7f8bd	-0.02050435
195	0x3c22f883	0.009946945
196	0x3c8c943d	0.01716053
197	0x3cbcac73	0.023031449
198	0x3ced0ac9	0.028935807
199	0x3c5c9e73	0.013465512
200	0xbcf5e63f	-0.030017016
201	0x39140322	0.00014115547
202	0x3c64e658	0.013970934
203	0xbc9d5fc2	-0.0192107
204	0x3b773b2b	0.0037724476
205	0xbb823a2b	-0.0039742193
206	0xbcacc1c9	-0.021088498
207	0x3cbbd43c	0.02292835
208	0xbce65d82	-0.02812076
209	0xbcafb890	-0.021450311
210	0x3b8c3aac	0.004279455
211	0x3c3aad7b	0.0113939
212	0xbb9bc92b	-0.0047542057
213	0x3b96fb46	0.004607591
214	0x3bf683a8	0.007523019
215	0xbcf8d5d8	-0.030375406
216	0xbc49e55e	-0.012322752
217	0xbc43a5ea	-0.011941412
218	0xbd0cb382	-0.03435088
219	0x3c6e9104	0.014560942
220	0xbd1f4dfc	-0.03889273
221	0x3bbc2fd8	0.005743008
222	0xbb9d9bfa	-0.0048098536
223	0xbc89dab5	-0.01682792
224	0x3cd174c2	0.02556837
225	0xbcf8656d	-0.030321801
226	0xbc8e2b16	-0.01735453
227	0x3cb0f44e	0.021600869
228	0x3cc2ff93	0.023803508
229	0x3d126060	0.03573644
230	0xbc4d2661	-0.012521357
231	0xbca051be	-0.019570228
232	0xbb17fe79	-0.002319245
233	0xbc9d2758	-0.0191838
234	0xbcf0e2f3	-0.029405093
235	0xbc55b720	-0.013044149
236	0x3bff7068	0.0077953823
237	0x3ce0f043	0.027458316
238	0x3b4c1199	0.0031138419
239	0x3984789d	0.00025266866
240	0x3cd683f1	0.026185961
241	0x3c8141a5	0.015778372
242	0x3cf4f572	0.029902194
243	0xbcbb087d	-0.022831196
244	0x3a531e10	0.0008053491
245	0xbd0eb865	-0.03484382
246	0xbcccfd71	-0.025023194
247	0x3d0cd24b	0.03438024
248	0x3ceade44	0.028670438
249	0xba5b1873	-0.000835783
250	0x3c8f3e16	0.01748566
251	0x3d1a824f	0.03772193
252	0xbd0746e3	-0.033026587
253	0x3cd34114	0.025787868
254	0x3b26d3fe	0.0025455947
255	0x3cde60d8	0.027145788

weight f4 [10, 256]
0	0xbcf8491a	-0.030308295
1	0x3c1a57f1	0.009420381
2	0xbbbeac5b	-0.005818886
3	0xbd22f07e	-0.039780132
4	0xbcc5eeea	-0.024161775
5	0xbda2ea6a	-0.07954867
6	0x3a75367b	0.00093541265
7	0x3cdff716	0.0273395
8	0xbd992496	-0.07477681
9	0xbb13cbdf	-0.0022551937
10	0x3dc88669	0.09791262
11	0x3d6fdb8e	0.058558993
12	0xbd47d18f	-0.048783835
13	0x3d5dd549	0.054158483
14	0xbc82c83c	-0.01596462
15	0xbd3f603d	-0.04672264
16	0xbd8fec37	-0.07027476
17	0xbd05e10a	-0.032685317
18	0xbd1d5a19	-0.038416002
19	0x3d918487	0.07105356
20	0x3d8c1e28	0.06841689
21	0x3dcc79e0	0.09984183
22	0x3db7ca5d	0.089741446
23	0x3c52780b	0.012846003
24	0xbca10292	-0.019654546
25	0x3cc84fcc	0.024452113
26	0x3d1af9ad	0.037835766
27	0xbd58aad0	-0.052897274
28	0x3d79ea69	0.061014567
29	0xbdb96bd7	-0.09053772
30	0x3c7d49e5	0.015459512
31	0xbd3d2732	-0.046179958
32	0x3cd0a7ac	0.025470577
33	0x3d94cebe	0.072659954
34	0x3b890780	0.0041818023
35	0xbddc4520	-0.10755372
36	0x3d80a891	0.062821515
37	0x3c386952	0.011255579
38	0x3d8eed4e	0.06978856
39	0xbd906f31	-0.07052458
40	0xbcfe55df	-0.031046806
41	0xbdadfbd1	-0.08495296
42	0x3cb69d49	0.022291796
43	0xbd5a650b	-0.05331902
44	0xbd9dfd27	-0.077143006
45	0x3d9462f5	0.07245437
46	0x3ca286bd	0.019839639
47	0x3cbea771	0.023273202
48	0x3dac642f	0.08417546
49	0x3d7b9a97	0.061426725
50	0xbd272759	-0.04080901
51	0x3d98f8dc	0.07469341
52	0x3dbc89f6	0.092060015
53	0x3daf9913	0.085741185
54	0xbdbecbca	-0.093162134
55	0xbd9e4160	-0.07727313
56	0x3daf08c1	0.085465916
57	0x3d9bdd1b	0.07610532
58	0xbd85baa4	-0.065297395
59	0xbd8e3a1f	-0.069446795
60	0x3ca861a1	0.020554366
61	0xbd34b2c5	-0.0441158
62	0x3d7adeaa	0.061247505
63	0xbd2b17e4	-0.04177083
64	0xbd37f99e	-0.044915788
65	0x3da034c1	0.07822562
66	0xbd5dcb58	-0.054149
67	0xbd79403a	-0.060852267
68	0x3d9c254f	0.076243035
69	0xbdb3a1a1	-0.08771063
70	0x3d3b67fa	0.045753457
71	0xbdb11f20	-0.08648515
72	0x3d5dcf05	0.054152507
73	0xbb5c0088	-0.0033569653
74	0xbc7e51e5	-0.015522455
75	0xbd686c77	-0.056744065
76	0xbdacd152	-0.08438362
77	0x3dc8f809	0.09812934
78	0x3cb52f33	0.022117233
79	0x3d859da7	0.065242104
80	0x3ca6ab54	0.020345367
81	0x3d2a807d	0.041626442
82	0x3d545200	0.051836014
83	0x3d6d1a27	0.05788627
84	0xbb6284a2	-0.0034563919
85	0x3d31e496	0.043430887
86	0xbc430468	-0.011902906
87	0x3d948109	0.07251174
88	0xbd8b1aba	-0.06792207
89	0x3d8cc0c1	0.068727024
90	0x3c9d24c4	0.01918257
91	0x3d07b70a	0.033133544
92	0xbd81b5bc	-0.06333491
93	0xbd74bb14	-0.059748724
94	0x3c6de655	0.0145202475
95	0x3d8dc513	0.069223545
96	0x3c966e3f	0.018363116
97	0x3d5e5f62	0.054290183
98	0x3d0bbf4f	0.034117993
99	0x3d5e4754	0.054267243
100	0x3d91ca82	0.071187034
101	0xbca95fee	-0.020675626
102	0xbd638f11	-0.05555636
103	0x3ce6f55d	0.02819317
104	0x3b9fa14b	0.0048715225
105	0x3d72bc14	0.059261397
106	0x3da2bf79	0.07946677
107	0x3dae0bc7	0.0849834
108	0x3d95ce22	0.07314707
109	0xbd470958	-0.048592895
110	0x3d720a57	0.059091892
111	0x3dabac73	0.083825015
112	0x3cc2a6a5	0.023761103
113	0xbd512c70	-0.05106777
114	0xbd8984d8	-0.06714791
115	0x3ce466ec	0.027881108
116	0x3dd69bfe	0.10478972
117	0x3bcd1471	0.0062585403
118	0xbdbe643d	-0.09296463
119	0x3c0a48e3	0.008440229
120	0x3d1c338d	0.0381351
121	0x3c4218f2	0.011846768
122	0xbd17aeae	-0.037031822
123	0xbd249a42	-0.040186174
124	0x3da272c5	0.07932047
125	0x3cc0ea2a	0.023549158
126	0xbd97d68f	-0.07413971
127	0x3d8c2237	0.068424635
128	0xbcbe518b	-0.023232242
129	0xbd2a21d3	-0.041536164
130	0x3d0e3344	0.03471686
131	0xbdd89d3e	-0.105768666
132	0xbc93ae3b	-0.018027415
133	0x3b81fdde	0.003967031
134	0xbd791e6b	-0.060820024
135	0xbd7ba4c2	-0.061436422
136	0xbaa84b01	-0.0012839736
137	0x3c3595d9	0.01108309
138	0xbbd8694b	-0.006604349
139	0x3dabe632	0.08393516
140	0xbdab32b6	-0.08359282
141	0x3c38c62d	0.011277718
142	0xbda1467d	-0.07874773
143	0xbd1d1a5d	-0.03835522
144	0x3d8cc9ca	0.06874426
145	0x3bc6cac3	0.0060666515
146	0x3d8b8672	0.06812753
147	0x3cafca11	0.021458657
148	0xbdda953e	-0.10672997
149	0x3d3628ca	0.044472493
150	0xbd89f2bc	-0.06735751
151	0x3db593e9	0.08866102
152	0xbcf8547a	-0.030313719
153	0xbd000a0d	-0.031259585
154	0x3dc61cc0	0.096734524
155	0xbdc55e77	-0.09637158
156	0x3d8f8031	0.070068724
157	0x3d48ca16	0.04902085
158	0xbd520feb	-0.05128471
159	0xbd8bab11	-0.06819738
160	0x3dd80615	0.10548035
161	0x3d45671a	0.04819403
162	0xbd346c92	-0.044048853
163	0xbc88fa57	-0.016720934
164	0xbd497449	-0.049183164
165	0x3b653d86	0.0034979298
166	0xbda31848	-0.07963616
167	0xbd2a7220	-0.041612744
168	0x3dba14af	0.09085976
169	0x3c822893	0.015888488
170	0x3c8a7b18	0.016904399
171	0x3aa55703	0.0012614432
172	0xbc8e4bbc	-0.017370097
173	0xbcc59ac3	-0.024121648
174	0x3d8ae82e	0.06782566
175	0xbc82cc1b	-0.015966466
176	0x3db5450e	0.08851062
177	0xbdb8b201	-0.090183266
178	0x3c13d859	0.009023749
179	0xbdac6e9a	-0.08419533
180	0x3d80f574	0.062968165
181	0x3d4d8503	0.050175678
182	0x3d412d93	0.047162604
183	0xbc86a97e	-0.016438242
184	0xbd8d6f33	-0.06905975
185	0xbcf9c7eb	-0.030490836
186	0x3ce9d305	0.028543005
187	0x3d05a58f	0.032628592
188	0xbc12229e	-0.008919386
189	0x3cd09198	0.02546005
190	0xba86ed5f	-0.0010294131
191	0x3d0b3dd4	0.03399451
192	0xbc07496a	-0.008257249
193	0xbd238fd4	-0.039932087
194	0xbd70e45b	-0.058811527
195	0x3dc37745	0.09544233
196	0x3d8e1f23	0.069395326
197	0xbd8c2e1d	-0.06844733
198	0xbd2f052f	-0.042729553
199	0xbd9ea8f0	-0.07747066
200	0x3d8d7e2a	0.069088295
201	0xbd877123	-0.06613376
202	0xbd97fc63	-0.07421186
203	0xbc28bd3c	-0.010299023
204	0x3d3927cd	0.045203973
205	0xbdc8d31a	-0.098058894
206	0xbd57ad88	-0.052655727
207	0x3c09aedf	0.008403509
208	0xbd033967	-0.032037165
209	0xbd0c5eea	-0.034270205
210	0x3d974a9c	0.073872775
211	0x3d6d17fd	0.057884205
212	0x3c53b72b	0.012922089
213	0xbd97c014	-0.07409683
214	0xba14cf95	-0.0005676684
215	0x3bafc117	0.0053635943
216	0xbbf685c4	-0.0075232703
217	0xbd0945e9	-0.033513937
218	0xbd6b66c2	-0.057471044
219	0xbd84a2d2	-0.06476368
220	0x3d867832	0.06565894
221	0xbc94ce5f	-0.018164812
222	0xbdacdc58	-0.08440465
223	0xbdab8542	-0.08375026
224	0x3d6ed32e	0.058306865
225	0xbd9e93c1	-0.077430256
226	0x3d9643fb	0.07337185
227	0xbb1bbdc9	-0.0023764244
228	0xbc7e8f8e	-0.015537156
229	0xbcaec57e	-0.021334406
230	0xbd3590ef	-0.044327673
231	0x3c09ab30	0.008402631
232	0x3d6a4f94	0.057204798
233	0xbce02c41	-0.027364852
234	0xbd566f33	-0.05235214
235	0x3cfaff99	0.030639457
236	0xbd937ac1	-0.07201148
237	0xbc3e7ed7	-0.011626921
238	0xbd857e13	-0.065181874
239	0xbdc5c478	-0.09656614
240	0x3d4f90f7	0.05067536
241	0x3cf708ad	0.030155504
242	0xbd8a8cf4	-0.06765166
243	0x3c7b7d20	0.015349656
244	0x3cfcbdc2	0.030852202
245	0xbd2a82ee	-0.04162877
246	0x3c50e3bd	0.01274961
247	0xbd3ebf05	-0.04656889
248	0xbc8d5096	-0.01725034
249	0x3d6b6778	0.057471722
250	0xbdcce608	-0.100048125
251	0xbd470631	-0.04858989
252	0x3dc87e7d	0.09789751
253	0x3ccc1f2a	0.024917204
254	0xbdc56152	-0.09637703
255	0x3d8a4695	0.06751744

bias f4 [10]
0	0xbd2480de	-0.04016196
1	0xbc78edc4	-0.0151934065
2	0xbccd6ffa	-0.025077809
3	0x3d5fe90c	0.05466561
4	0xbd8222e2	-0.063543096
5	0xbcccb048	-0.024986401
6	0x3c83506e	0.016029563
7	0x3cacd7b4	0.021098949
8	0xbd77da24	-0.06051077
9	0x3d269680	0.04067087
